…
&gt;&gt;&gt;                       activation=None, name='embedding')(model)
&gt;&gt;&gt;     embeddings = NormaliseLayer()(embeddings)
&gt;&gt;&gt;     return Model(inputs, embeddings)
&gt;&gt;&gt;
&gt;&gt;&gt; model = construct_model()
&gt;&gt;&gt; model.summary()

</code></pre>

<pre class="prettyprint">
    _________________________________________________________________
    Layer (type)                 Output Shape              Param #
    =================================================================
    input_1 (InputLayer)         [(None, 32, 32, 3)]       0
    conv2d (Conv2D)              (None, 15, 15, 32)        896
    conv2d_1 (Conv2D)            (None, 7, 7, 64)          18496
    conv2d_2 (Conv2D)            (None, 3, 3, 128)         73856
    conv2d_3 (Conv2D)            (None, 1, 1, 256)         295168
    dense (Dense)                (None, 1, 1, 32)          8224
    embedding (Dense)            (None, 1, 1, 32)          1056
    normalise_layer (NormaliseLa (None, 1, 1, 32)          0
    =================================================================
    Total params: 397,696
    Trainable params: 397,696
    Non-trainable params: 0
</pre>

<p>we'll need some utility functions to
</p>
<ol>
 <li>
     run images through this model...
 </li>

 <li>
     calculate the cosine sims between the different types of the embeddings and
 </li>

 <li>
     calculate an overall accuracy for the 100 test examples.
…
