…
<img src="/blog/imgs/2019/tcn_grasping/grasping_data_example_triples.png"/>


<h3>training</h3>
<p>let's train a very simple small model for this experiment.
   ( the training data and loss function is more interesting than a huge model and
   for i saw marginal improvement in a bigger model anyway... )
</p>
<pre class="prettyprint"><code class="language-python">______________________________________________________________________________________
Layer (type)                 Output Shape              Param #  Comment
======================================================================================
inputs (InputLayer)          (None, 180, 240, 3)       0
conv2d (Conv2D)              (None, 90, 120, 16)       1216    # 5x5 stride 2
conv2d_1 (Conv2D)            (None, 45, 60, 32)        4640    # 3x3 stride 2
conv2d_2 (Conv2D)            (None, 23, 30, 32)        9248    # 3x3 stride 2
conv2d_3 (Conv2D)            (None, 12, 15, 32)        9248    # 3x3 stride 2
flatten (Flatten)            (None, 5760)              0
dropout (Dropout)            (None, 5760)              0       # keep = 0.5
dense (Dense)                (None, 64)                368704
embedding (Dense)            (None, 128)               8320
normalise_layer (NormaliseLa (None, 128)               0       # tf.nn.l2_normalize
======================================================================================
Total params: 401,376
Trainable params: 401,376
</code></pre>

<p>for the loss function we do as described above...
   (note: a batch of B training instances is 3*B images; each instance is a triple of images)
</p>
<pre class="prettyprint"><code class="language-python">embeddings = model.output                                            # (3B, E)
…
